Modeli/model.pt (torch, 4949 bytes, 1 tensors)

classifier.weight f4 [1, 768]
-0.0291147 0.007134528 0.028791923 -0.0074641122 -0.01914067 0.007610765 0.026571367 -0.03124449
-0.010721026 0.021167777 0.034562007 -0.0141137205 -0.011035626 0.021012222 0.011580023 0.03430406
0.0066244537 -0.022197582 -0.013147676 0.021987354 0.030579485 0.029429868 0.008261087 0.0019221591
0.003290704 -0.027446235 0.0015325223 0.033762805 -0.01891681 -0.006725725 0.028073294 0.019503798
-0.018178241 -0.030039383 -0.029975364 -0.026824376 -0.029333577 0.030251766 0.0027055352 0.012111144
-0.029826058 0.010068671 -0.019742098 0.033132132 -0.030068452 -0.033424705 0.012227917 -0.009281574
-0.021210583 0.028931981 0.0027946641 0.011198239 0.015241878 -0.011150831 -0.0021811763 -0.0131201735
-0.0164605 -0.027053567 0.016920522 -0.017300664 -0.01164651 -0.004954465 -0.024342492 0.035985038
0.023547389 0.011177318 -0.012084374 0.005869623 -0.028118607 -0.014538148 0.02153134 -0.027240695
-0.010749067 -0.0116435215 0.03170171 0.023422057 0.00901041 -0.01965366 0.019497205 -0.028446555
0.014927609 0.01784635 -0.0055284533 0.014554047 -0.009812907 0.0052751587 0.026428364 -0.004909717
0.01607515 -0.0050268555 0.02065516 0.022878658 0.007831688 -0.032038204 -0.011774473 0.031713873
-0.032698054 0.03561464 0.011684526 0.0016952221 0.023007361 -0.012274426 -0.026702056 -0.0001942458
0.0082547655 0.0002422041 -0.033956166 -0.004607126 0.006618035 0.011575623 -0.0065867016 -0.026503652
0.022218397 0.0044214614 -0.0061807223 -0.00033215247 0.0073808557 -0.0012244573 -0.029300565 0.014714821
0.030798236 0.018293058 0.024012133 0.033650715 -0.034687195 -0.02239563 -0.023284303 -0.006776285
0.023322657 0.012143815 -0.013235628 -0.02542796 0.030874128 -0.022746328 0.010596333 0.018391782
0.0069984323 -0.035207987 0.0075903595 0.027169902 -0.02092015 -0.027235977 0.020263221 0.010635198
-0.015616121 0.020260464 -0.030742714 -0.0052233 0.009765138 -0.0019470977 -0.024430595 -0.035431992
0.020341504 -0.0101346485 0.028313717 -0.015754318 -0.030443251 0.032489397 0.0016785638 -0.021833936
-0.03261039 -0.03337927 -0.0062900255 0.013497268 0.0129392 0.027530368 -0.02165951 -0.033233285
0.006826397 -0.0017836185 0.0023573055 0.021222237 -0.0009857119 -0.010517492 -0.036064796 -0.025465297
0.03344767 -0.030636981 -0.014007173 -0.015658656 0.0010498577 0.011707163 -0.02217213 -0.0041038743
-0.014584808 -0.01958227 0.0069410005 -0.017913898 0.032743398 -0.03290013 0.0057660486 -0.0047784713
0.0057480484 0.010060991 -0.026922679 -0.028354859 0.02864931 0.018053517 0.02550036 -0.035513826
0.032132395 0.002895067 -0.026086576 0.01320528 0.020594655 -0.010561947 0.03475033 0.00417705
0.02515369 -0.013617143 -0.03390349 -0.018559946 0.027315732 -0.021953829 0.012045063 -0.020620998
0.010509648 0.033065133 0.014726185 -0.013836016 -0.027870277 -0.0075202417 -0.0048919907 -0.011172663
-0.0129448725 0.02381841 -0.021632703 -0.023922373 -0.012402173 0.01891658 0.00054217863 0.009253125
0.03467619 0.0040761656 0.0021035112 -0.0006911657 -0.02620487 0.0041611227 -0.005152226 -0.034279894
-0.014572335 -0.01616544 -0.0008588132 -0.03560904 -0.018933587 -0.025196455 0.012506861 -0.027225688
0.02737725 -0.009679846 0.03416238 -0.019738497 0.02876929 0.034456894 0.027135609 -0.017529268
00000000: f481 eebc c2c8 e93b 0add eb3c 8395 f4bb
00000010: e5cc 9cbc b963 f93b 32ac d93c 72f4 ffbc
00000020: 3ea7 2fbc 0c68 ad3c e490 0d3d 3c3d 67bc
00000030: c5ce 34bc d321 ac3c 23ba 3d3c 6a82 0c3d
00000040: f211 d93b b4d7 b5bc 5a69 57bc d31e b43c
00000050: d481 fa3c e816 f13c 8359 073c f5f0 fb3a
00000060: daa8 573b edd6 e0bc eade c83a de4a 0a3d
00000070: 6df7 9abc 7863 dcbb f7f9 e53c 6ec6 9f3c
00000080: 89ea 94bc 2715 f6bc e58e f5bc cbbe dbbc
00000090: f84c f0bc 8dd2 f73c 594f 313b d26d 463c
000000a0: c755 f4bc 11f7 243c 2eba a1bc 8fb5 073d
000000b0: 1d52 f6bc 58e8 08bd 9a57 483c be11 18bc
000000c0: d1c1 adbc c302 ed3c af26 373b d278 373c
000000d0: 12b9 793c fab1 36bc 11f2 0ebb fff5 56bc
000000e0: 2cd8 86bc 719f ddbc e89c 8a3c 1fba 8dbc
000000f0: 01d1 3ebc 1159 a2bb e869 c7bc 0c65 133d
00000100: 74e6 c03c 1221 373c 8afd 45bc f755 c03b
00000110: fe58 e6bc 6a31 6ebc 7e62 b03c e127 dfbc
00000120: db1c 30bc 78c4 3ebc a7d9 013d 9ddf bf3c
00000130: 66a0 133c b600 a1bc 9ab8 9f3c c008 e9bc
00000140: ee92 743c 8232 923c 0728 b5bb 1974 6e3c
00000150: 51c6 20bc 3ddb ac3b 4c80 d83c b1e1 a0bb
00000160: 08b0 833c 52b8 a4bb 0335 a93c 066c bb3c
00000170: 7b50 003c 7e3a 03bd b8e9 40bc 68e6 013d
00000180: 65ee 05bd a8e0 113d 7470 3f3c 3732 de3a
00000190: ef79 bc3c ad1a 49bc 45be dabc 76ae 4bb9
000001a0: ff3e 073c 2bf8 7d39 9f15 0bbd 60f7 96bb
000001b0: 1adc d83b afa7 3d3c 42d5 d7bb 301e d9bc
000001c0: 5b03 b63c e8e1 903b a887 cabb c024 aeb9
000001d0: 1bdb f13b f87d a0ba bd07 f0bc 6f16 713c
000001e0: 954c fc3c 53db 953c 18b5 c43c 55d5 093d
000001f0: 2914 0ebd 0a77 b7bc b9be bebc 990b debb
00000200: 280f bf3c daf6 463c 3fda 58bc 4c4e d0bc
00000210: bdeb fc3c 8256 babc 3e9c 2d3c 5daa 963c
00000220: 1b53 e53b 4036 10bd 8db8 f83b 6a93 de3c
00000230: bc60 abbc fc1d dfbc 0eff a53c 413f 2e3c
00000240: c2da 7fbc 46f9 a53c 25d8 fbbc 3728 abbb
00000250: f5fd 1f3c c235 ffba ac22 c8bc 2321 11bd
00000260: 3aa3 a63c cc0b 26bc 2bf2 e73c 330f 81bc
00000270: 2064 f9bc 9a13 053d 4103 dc3a 15dd b2bc
00000280: 7992 05bd b4b8 08bd 8f1c cebb a523 5d3c
00000290: f0fe 533c 5e87 e13c 496f b1bc a01f 08bd
000002a0: f8af df3b 4ec8 e9ba 067d 1a3b 42da ad3c
000002b0: 0133 81ba 8f51 2cbc aeb8 13bd 999c d0bc
000002c0: 6d00 093d 68fa fabc 577e 65bc 9546 80bc
000002d0: 619b 893a 67cf 3f3c 54a2 b5bc cb79 86bb
000002e0: 1ef5 6ebc ff6a a0bc 5571 e33b 2bc0 92bc
000002f0: f11d 063d 49c2 06bd 1ff1 bc3b b994 9cbb
00000300: 205a bc3b dbd6 243c f38c dcbc 7348 e8bc
00000310: f5b1 ea3c f8e4 933c 22e6 d03c f276 11bd
00000320: 429d 033d 2abb 3d3b 84b3 d5bc f55a 583c
00000330: 1fb6 a83c 040c 2dbc 5d56 0e3d a3df 883b
00000340: 1c0f ce3c 701a 5fbc 63de 0abd 070b 98bc
00000350: 3ec5 df3c 84d8 b3bc a858 453c 5eed a8bc
00000360: a930 2c3c 4e6f 073d 1946 713c 75b0 62bc
00000370: 3550 e4bc 5c6c f6bb fe4c a0bb 8c0d 37bc
00000380: bb16 54bc d31e c33c 1137 b1bc daf8 c3bc
00000390: 7c32 4bbc f2f6 9a3c fe20 0e3a 6b9a 173c
000003a0: 9f08 0e3d 5b91 853b 10db 093b 582f 35ba
000003b0: 98ab d6bc 075a 883b 01d4 a8bb 1369 0cbd
000003c0: cec0 6ebc 636d 84bc fa21 61ba c9da 11bd
000003d0: 9c1a 9bbc cc68 cebc 94e9 4c3c 6808 dfbc
000003e0: 4146 e03c 3898 1ebc daed 0b3d a1b2 a1bc
000003f0: 93ad eb3c ac22 0d3d 7f4b de3c 8a99 8fbc
